data.pth (torch, 5482 bytes, 6 tensors)

l1.weight f4 [8, 54]
0	0xbe401d83	-0.18761258
1	0x3e5041cf	0.20337604
2	0xbe9fc01d	-0.31201258
3	0x3e4e3566	0.20137557
4	0x3d9cc0d6	0.07653968
5	0x3f0f6651	0.560155
6	0xbe4ed5e1	-0.20198776
7	0xbe51fbbd	-0.20506187
8	0xbee82d75	-0.4534718
9	0xbe4b3901	-0.19845964
10	0x3e369a46	0.17832288
11	0xbdac8137	-0.08423083
12	0xbdbb2d23	-0.091394685
13	0xbe9a5c49	-0.30148533
14	0x3bc38aad	0.005967459
15	0xbe684fa1	-0.22686626
16	0x3e83319d	0.2562379
17	0x3f1d5a6a	0.61466086
18	0x3e2e7226	0.17035732
19	0x3e1722cb	0.14759366
20	0xbe8299a9	-0.25507858
21	0x3e8210ef	0.25403544
22	0x3ea31521	0.31852058
23	0x3e8d50c9	0.27600697
24	0xbddb4fae	-0.10708557
25	0x3e8b6a7d	0.27229682
26	0x3d4be58e	0.049779467
27	0x3df79afc	0.12090108
28	0xbef9a4be	-0.487585
29	0x3d2f3e64	0.04278411
30	0x3ed6f147	0.41980955
31	0xbe901bb8	-0.28146148
32	0xbdcd1886	-0.10014443
33	0xbeb70940	-0.35749245
34	0x3ce6f4cf	0.028192906
35	0xbde18863	-0.11012342
36	0xbecdffd8	-0.40234256
37	0xbec493a6	-0.38393897
38	0xbdcce70f	-0.100050084
39	0xbe54c285	-0.20777328
40	0x3f173db1	0.5907851
41	0x3e8b2cf2	0.27182728
42	0xbe1e7ac8	-0.15476525
43	0x3dd65bdf	0.10466742
44	0xbe460f2c	-0.19341725
45	0x3db0df0f	0.08636295
46	0xbf385dbc	-0.7201803
47	0xbe8e06ec	-0.27739656
48	0x3e069747	0.13143645
49	0x3d5a65e0	0.05331981
50	0xbd3676d2	-0.04454691
51	0x3e6b5f05	0.22985466
52	0xbdd39db4	-0.10332814
53	0x3d27f1ea	0.04100219
54	0x3e1f5c83	0.15562634
55	0xbe906cc3	-0.2820798
56	0x3f0cf747	0.55064815
57	0x3ecf368a	0.40471298
58	0x3ed685fd	0.418991
59	0xbf150294	-0.5820706
60	0x3e6bba70	0.23020339
61	0x3eac761c	0.3368386
62	0x3f075be3	0.52874583
63	0x3e82343f	0.25430486
64	0x3ed6b560	0.41935253
65	0x3f02b195	0.5105222
66	0x3ea43158	0.32068896
67	0x3f171dd3	0.59029883
68	0xbe432c72	-0.19059923
69	0x3ef1d6ba	0.47234136
70	0x3ec47c8c	0.38376272
71	0xbf040e43	-0.5158426
72	0xbddeadc7	-0.10872989
73	0x3f256b21	0.6461659
74	0x3df489f9	0.11940379
75	0x3f234cb8	0.6378894
76	0x3f246601	0.64218146
77	0x3f18b737	0.59654564
78	0x3f1b7918	0.6073165
79	0x3ea6dafe	0.32588953
80	0xbe5a95f8	-0.21346271
81	0xbee46591	-0.4460874
82	0xbee3b08b	-0.4447063
83	0xbf052a23	-0.5201742
84	0xbec38ce4	-0.3819343
85	0x3f16c28b	0.588906
86	0x3e873cd6	0.26413602
87	0x3ef97638	0.48723006
88	0xbe22def4	-0.15905362
89	0x3edcad43	0.43100938
90	0xbef9e3a9	-0.48806503
91	0x3eb39f9b	0.35082707
92	0x3ec69fe3	0.3879386
93	0x3ed5e119	0.41773298
94	0xbf01121f	-0.50418276
95	0xbea9a68d	-0.3313488
96	0x3eae5a2b	0.34053168
97	0xbe4143df	-0.18873547
98	0x3ef5db6d	0.4801897
99	0xbe39efff	-0.18157957
100	0x3db790d9	0.089631744
101	0x3d9802b6	0.07422392
102	0x3ef6956d	0.48160878
103	0xbea46a76	-0.32112473
104	0x3ed75ba0	0.42062092
105	0xbe71a70e	-0.23598883
106	0x3ea58143	0.3232518
107	0x3e869b52	0.26290375
108	0x3ef0710e	0.46961254
109	0xbd278a5c	-0.040903434
110	0x3ebef841	0.37298778
111	0x3e72fcad	0.237292
112	0x3ed6925a	0.41908532
113	0xbefe035e	-0.49611944
114	0x3ec84b91	0.39120153
115	0x3e87fba2	0.26559168
116	0x3f216cfb	0.63056916
117	0x3e267f94	0.16259605
118	0x3ecd388f	0.40082213
119	0xbe1cd462	-0.15315393
120	0x3eae5b62	0.34054095
121	0x3db109bc	0.08644435
122	0xbd337f7f	-0.04382276
123	0xbe9fa197	-0.3117797
124	0x3ec56d14	0.38559783
125	0xbefdf830	-0.49603415
126	0x3f34cac9	0.70621926
127	0x3ed5134b	0.41616282
128	0x3f068c67	0.52557987
129	0x3f0876a6	0.53306043
130	0x3f04684d	0.5172165
131	0xbee16e35	-0.44029394
132	0x3ec3eaca	0.38265067
133	0x3e23b052	0.1598523
134	0x3f2e676e	0.6812657
135	0xbf0f8042	-0.5605508
136	0x3ee5b2b2	0.44862896
137	0xbefdc1f3	-0.49562034
138	0xbef614bc	-0.48062694
139	0xbe25a30e	-0.16175482
140	0x3ee04297	0.43800804
141	0x3e911e1a	0.28343278
142	0xbe0a9aa5	-0.13535555
143	0xbebe58ad	-0.3717703
144	0x3f13e1f4	0.5776665
145	0x3f25836f	0.64653677
146	0x3e9d9904	0.30780804
147	0x3e5e9e51	0.2174008
148	0xbf156da7	-0.5837044
149	0x3f2abefc	0.6669767
150	0xbe0ec09d	-0.13940664
151	0xbe00ca6b	-0.12577216
152	0x3e22177a	0.15829268
153	0xbe43f7be	-0.19137475
154	0x3f5bea3e	0.859043
155	0x3eb8b4c3	0.3607541
156	0x3f07ee96	0.5309843
157	0x3f39841d	0.72467214
158	0xbec4bc3d	-0.38424864
159	0x3f2871f0	0.65798855
160	0x3e6a9607	0.22908793
161	0x3f2fc85d	0.68665105
162	0xbe98bfc7	-0.29833815
163	0x3deb3900	0.11485481
164	0x3f44a0da	0.7680794
165	0x3e950dc7	0.29112074
166	0x3f28ba1e	0.6590899
167	0x3f2e032d	0.67973596
168	0x3f30ed3c	0.6911199
169	0x3f1de52b	0.6167781
170	0x3f116788	0.567986
171	0x3f061f2b	0.5239131
172	0x3ed23e0d	0.41062966
173	0xbef29896	-0.4738204
174	0x3f1a1357	0.6018576
175	0xbeafa761	-0.34307387
176	0x3ea19d69	0.31565407
177	0xbe9d889d	-0.3076829
178	0x3ee9aff4	0.45642054
179	0x3f190628	0.5977502
180	0x3f0593a3	0.521784
181	0x3f02c9dc	0.5108926
182	0xbe728214	-0.23682433
183	0x3ec426be	0.38310808
184	0x3ef735df	0.48283288
185	0x3c983312	0.01857904
186	0x3df0fdab	0.11767133
187	0x3ebd12b1	0.36928323
188	0x3f273ac5	0.6532405
189	0x3e72a9e2	0.23697618
190	0x3f0d8778	0.55284834
191	0xbd92104f	-0.07132017
192	0x3ee94f87	0.45568487
193	0xbeb26c10	-0.3484807
194	0xbdbc1203	-0.09183123
195	0x3f1729dc	0.5904825
196	0x3ee14b63	0.44002828
197	0xbe9e6823	-0.30938825
198	0x3f14ab5c	0.58073974
199	0x3f247922	0.64247334
200	0x3f2974f0	0.6619406
201	0x3f1770a0	0.5915623
202	0x3f07a2b5	0.52982646
203	0x3f2d61a0	0.6772709
204	0xbe84151a	-0.2579735
205	0x3e7b0c5b	0.24516432
206	0xbc82fad5	-0.015988747
207	0x3ee695cc	0.4503616
208	0xbf728033	-0.94726866
209	0xbed2cb82	-0.4117089
210	0x3f15a6e5	0.58457786
211	0x3f331def	0.6996755
212	0xbec64cce	-0.38730472
213	0x3f163fe6	0.5869125
214	0x3f07e744	0.5308726
215	0x3f2e4417	0.68072647
216	0x3f1d6471	0.61481386
217	0x3f43b52b	0.76448315
218	0xbf222607	-0.63339275
219	0xbeaf280d	-0.34210244
220	0xbe2170cc	-0.15765685
221	0x3f2e2b15	0.6803449
222	0xbe1fdaa1	-0.15610744
223	0xbeb7a684	-0.3586923
224	0xbef5eee0	-0.4803381
225	0xbee10ced	-0.43955174
226	0xbea329bc	-0.31867778
227	0xbe465efa	-0.19372168
228	0x3eb8919a	0.36048585
229	0xbd8193a8	-0.06326991
230	0x3eb728c9	0.35773304
231	0xbe97fa5b	-0.29683194
232	0xbea6c42b	-0.3257154
233	0x3f30fc65	0.69135123
234	0x3ea85b33	0.3288208
235	0xbf24f6d0	-0.64439106
236	0x3ea80b45	0.32821098
237	0xbf24f27a	-0.6443249
238	0xbf24f846	-0.64441335
239	0xbf33d06b	-0.70239896
240	0xbdf0d1b6	-0.11758749
241	0xbed7afb0	-0.42126226
242	0x3f2878b3	0.6580917
243	0x3f09cca2	0.5382787
244	0x3ed813ef	0.42202708
245	0x3f110178	0.56642866
246	0x3e84f827	0.25970575
247	0xbdca61ae	-0.09881912
248	0x3ebbba57	0.36665604
249	0xbf258552	-0.64656556
250	0x3f17e051	0.59326655
251	0xbe94cc35	-0.29062048
252	0x3edeaad3	0.43489704
253	0xbebd391b	-0.3695763
254	0xbde93489	-0.113869734
255	0xbd681b3a	-0.05666659

l1.bias f4 [8]
0	0x3f385ed1	0.7201968
1	0x3f386574	0.72029805
2	0x3efe073a	0.49614888
3	0x3f72672e	0.9468869
4	0x3f24fd93	0.64449424
5	0xbdf4e72c	-0.11958155
6	0x3ebeda2f	0.37275836
7	0x3f31edec	0.69503665

l2.weight f4 [8, 8]
0	0xbf0a41a7	-0.5400643
1	0x3f65ccdd	0.8976572
2	0x3f6a9203	0.91629046
3	0xbf68ed9a	-0.9098755
4	0x3ebd2e66	0.36949462
5	0xbdc3e280	-0.09564686
6	0x3ea412af	0.32045504
7	0xbf33b339	-0.7019535
8	0x3f084624	0.53232026
9	0x3f6f1dee	0.93405044
10	0x3f066b09	0.5250707
11	0x3f97f705	1.1872259
12	0xbf8f264b	-1.1183561
13	0xbe80836b	-0.25100264
14	0xbe7523a6	-0.2393938
15	0x3f2e6744	0.6812632
16	0xbf91980a	-1.1374524
17	0x3d8bd780	0.06828213
18	0x3f9ba5d0	1.2159977
19	0x3ecf8d61	0.4053755
20	0x3f8ea326	1.1143539
21	0x3dbb64b7	0.09150069
22	0x3fc145f5	1.5099474
23	0xbf0bf034	-0.54663396
24	0xbe284f69	-0.16436543
25	0x3fa45b83	1.2840427
26	0x3f697914	0.91200376
27	0x3e9788b5	0.29596487
28	0xbf6fa331	-0.93608385
29	0xbe83b0d2	-0.2572084
30	0x3ee4d622	0.4469462
31	0x3e0bdb66	0.13657913
32	0xbda39dc1	-0.079890735
33	0x3f4db831	0.8035918
34	0xbed7180a	-0.42010528
35	0xbf36fd7c	-0.71480536
36	0xbf037f88	-0.5136647
37	0x3b921ec0	0.004459232
38	0x3ed82ece	0.4222321
39	0xbc004306	-0.00782848
40	0x3fa905b0	1.3204861
41	0xbe433915	-0.19064744
42	0x3f4a2d77	0.78975624
43	0x3f831d9e	1.0243413
44	0x3f96af3e	1.177223
45	0xbe3bcf1a	-0.18340722
46	0xbe89fe72	-0.2695194
47	0x3fb53b67	1.4158753
48	0x3fb044ef	1.3771037
49	0xbee5c07d	-0.4487342
50	0xbf7d349d	-0.98908406
51	0x3fa35472	1.2760146
52	0x3f7fec5f	0.9997005
53	0x3e23f599	0.16011657
54	0x3e80c764	0.25152123
55	0x3e662b2e	0.22477409
56	0xbe0209b1	-0.1269901
57	0xbe563d3c	-0.20921797
58	0xbdc11fa4	-0.09429863
59	0xbdd3327c	-0.103123635
60	0xbde4d9c8	-0.11174351
61	0x3e7fade6	0.2496868
62	0x3e0e7810	0.13912988
63	0x3e782956	0.24234518

l2.bias f4 [8]
0	0x3f108e82	0.5646745
1	0x3f0ed4b5	0.55793315
2	0xbd6d33d4	-0.057910755
3	0x3f1af5cc	0.60531306
4	0x3e198929	0.14993729
5	0x3f2b928c	0.6702049
6	0x3ede6162	0.43433672
7	0xbe7a5f0e	-0.24450323

l3.weight f4 [7, 8]
0	0x3f04c42b	0.5186183
1	0xbe05473a	-0.13015452
2	0xbe31d158	-0.17365015
3	0x3f1b3236	0.6062349
4	0x3f2c4d20	0.67305183
5	0xbfa1ece8	-1.2650423
6	0xbf8c8bd5	-1.0980173
7	0xbe350370	-0.17677093
8	0xbf36a164	-0.7134001
9	0xbfb8010a	-1.4375317
10	0x3ec9c2dd	0.3940648
11	0xbfc77663	-1.5583004
12	0xbe84d3e4	-0.2594291
13	0x3df827d3	0.12116971
14	0x3eef9561	0.46793655
15	0x3e31e1ca	0.17371288
16	0xbec9761d	-0.39347926
17	0x3d10f8f6	0.035393678
18	0xbfb6e8d5	-1.4289805
19	0xbfddfeda	-1.73434
20	0xbe8746ad	-0.2642111
21	0x3efcd109	0.4937823
22	0x3f4bb348	0.79570436
23	0xbe1e5c19	-0.1546482
24	0xbefc391c	-0.4926232
25	0x3f429cea	0.7602068
26	0xbfc46cb6	-1.5345676
27	0x3ea725b3	0.3264595
28	0xbf42d476	-0.7610544
29	0x3e6bd33e	0.23029801
30	0xbeb86b9f	-0.36019608
31	0x3dab67a0	0.08369374
32	0xbf393f62	-0.7236234
33	0xbd975e86	-0.07391076
34	0x3e19abce	0.15006945
35	0xbf2242df	-0.6338329
36	0xbecbbc50	-0.3979211
37	0x3ea0ac28	0.31381345
38	0xbe4cbc17	-0.19993626
39	0x3dac6a94	0.08418766
40	0xbe28cab1	-0.1648357
41	0x3ef5cee1	0.480094
42	0x3eb0b2ef	0.34511515
43	0x3eb8085e	0.35943884
44	0xbfa42c49	-1.2826015
45	0xbf3bab30	-0.73308086
46	0xbf0b96af	-0.545268
47	0xbe690a55	-0.22757848
48	0x3f43df80	0.7651291
49	0xbf9653db	-1.1744341
50	0x3f4fab52	0.8112079
51	0xbd993d0f	-0.07482349
52	0xbf796e78	-0.97434187
53	0xbe15a3f9	-0.14613332
54	0xbf6a1386	-0.9143604
55	0xbea1e104	-0.31616986

l3.bias f4 [7]
0	0x3e5a35d9	0.21309604
1	0x3ed94772	0.4243732
2	0xbe4e5318	-0.20148885
3	0xbd53e012	-0.051727362
4	0xbec81014	-0.39074767
5	0xbe2d8ecf	-0.16949008
6	0xbd5abd06	-0.053402923
